{"class_name": "Model", "keras_version": "2.2.4", "config": {"layers": [{"class_name": "InputLayer", "config": {"dtype": "float32", "batch_input_shape": [null, 3, 256, 256], "name": "TrioIn", "sparse": false}, "inbound_nodes": [], "name": "TrioIn"}, {"class_name": "Conv2D", "config": {"kernel_constraint": null, "kernel_initializer": {"class_name": "VarianceScaling", "config": {"distribution": "uniform", "scale": 1.0, "seed": null, "mode": "fan_avg"}}, "name": "conv2d_1", "bias_regularizer": null, "bias_constraint": null, "activation": "linear", "trainable": true, "data_format": "channels_first", "padding": "valid", "strides": [2, 2], "dilation_rate": [1, 1], "kernel_regularizer": null, "filters": 32, "bias_initializer": {"class_name": "Zeros", "config": {}}, "use_bias": true, "activity_regularizer": null, "kernel_size": [6, 6]}, "inbound_nodes": [[["TrioIn", 0, 0, {}]]], "name": "conv2d_1"}, {"class_name": "LeakyReLU", "config": {"alpha": 0.30000001192092896, "trainable": true, "name": "leaky_re_lu_1"}, "inbound_nodes": [[["conv2d_1", 0, 0, {}]]], "name": "leaky_re_lu_1"}, {"class_name": "LeakyReLU", "config": {"alpha": 0.30000001192092896, "trainable": true, "name": "leaky_re_lu_2"}, "inbound_nodes": [[["conv2d_1", 0, 0, {}]]], "name": "leaky_re_lu_2"}, {"class_name": "LeakyReLU", "config": {"alpha": 0.30000001192092896, "trainable": true, "name": "leaky_re_lu_3"}, "inbound_nodes": [[["conv2d_1", 0, 0, {}]]], "name": "leaky_re_lu_3"}, {"class_name": "BatchNormalization", "config": {"beta_constraint": null, "gamma_initializer": {"class_name": "Ones", "config": {}}, "moving_mean_initializer": {"class_name": "Zeros", "config": {}}, "name": "batch_normalization_1", "epsilon": 0.001, "trainable": true, "moving_variance_initializer": {"class_name": "Ones", "config": {}}, "beta_initializer": {"class_name": "Zeros", "config": {}}, "scale": true, "axis": -1, "gamma_constraint": null, "gamma_regularizer": null, "beta_regularizer": null, "momentum": 0.99, "center": true}, "inbound_nodes": [[["leaky_re_lu_1", 0, 0, {}]]], "name": "batch_normalization_1"}, {"class_name": "BatchNormalization", "config": {"beta_constraint": null, "gamma_initializer": {"class_name": "Ones", "config": {}}, "moving_mean_initializer": {"class_name": "Zeros", "config": {}}, "name": "batch_normalization_2", "epsilon": 0.001, "trainable": true, "moving_variance_initializer": {"class_name": "Ones", "config": {}}, "beta_initializer": {"class_name": "Zeros", "config": {}}, "scale": true, "axis": -1, "gamma_constraint": null, "gamma_regularizer": null, "beta_regularizer": null, "momentum": 0.99, "center": true}, "inbound_nodes": [[["leaky_re_lu_2", 0, 0, {}]]], "name": "batch_normalization_2"}, {"class_name": "BatchNormalization", "config": {"beta_constraint": null, "gamma_initializer": {"class_name": "Ones", "config": {}}, "moving_mean_initializer": {"class_name": "Zeros", "config": {}}, "name": "batch_normalization_3", "epsilon": 0.001, "trainable": true, "moving_variance_initializer": {"class_name": "Ones", "config": {}}, "beta_initializer": {"class_name": "Zeros", "config": {}}, "scale": true, "axis": -1, "gamma_constraint": null, "gamma_regularizer": null, "beta_regularizer": null, "momentum": 0.99, "center": true}, "inbound_nodes": [[["leaky_re_lu_3", 0, 0, {}]]], "name": "batch_normalization_3"}, {"class_name": "Reshape", "config": {"target_shape": [1, 508032], "trainable": true, "name": "reshape_1"}, "inbound_nodes": [[["batch_normalization_1", 0, 0, {}]]], "name": "reshape_1"}, {"class_name": "Reshape", "config": {"target_shape": [1, 508032], "trainable": true, "name": "reshape_2"}, "inbound_nodes": [[["batch_normalization_2", 0, 0, {}]]], "name": "reshape_2"}, {"class_name": "Reshape", "config": {"target_shape": [1, 508032], "trainable": true, "name": "reshape_3"}, "inbound_nodes": [[["batch_normalization_3", 0, 0, {}]]], "name": "reshape_3"}, {"class_name": "Dense", "config": {"kernel_initializer": {"class_name": "VarianceScaling", "config": {"distribution": "uniform", "scale": 1.0, "seed": null, "mode": "fan_avg"}}, "name": "dense_1", "kernel_constraint": null, "bias_regularizer": null, "bias_constraint": null, "activation": "relu", "trainable": true, "kernel_regularizer": null, "bias_initializer": {"class_name": "Zeros", "config": {}}, "units": 24, "use_bias": true, "activity_regularizer": null}, "inbound_nodes": [[["reshape_1", 0, 0, {}]]], "name": "dense_1"}, {"class_name": "Dense", "config": {"kernel_initializer": {"class_name": "VarianceScaling", "config": {"distribution": "uniform", "scale": 1.0, "seed": null, "mode": "fan_avg"}}, "name": "dense_2", "kernel_constraint": null, "bias_regularizer": null, "bias_constraint": null, "activation": "relu", "trainable": true, "kernel_regularizer": null, "bias_initializer": {"class_name": "Zeros", "config": {}}, "units": 24, "use_bias": true, "activity_regularizer": null}, "inbound_nodes": [[["reshape_2", 0, 0, {}]]], "name": "dense_2"}, {"class_name": "Dense", "config": {"kernel_initializer": {"class_name": "VarianceScaling", "config": {"distribution": "uniform", "scale": 1.0, "seed": null, "mode": "fan_avg"}}, "name": "dense_3", "kernel_constraint": null, "bias_regularizer": null, "bias_constraint": null, "activation": "relu", "trainable": true, "kernel_regularizer": null, "bias_initializer": {"class_name": "Zeros", "config": {}}, "units": 24, "use_bias": true, "activity_regularizer": null}, "inbound_nodes": [[["reshape_3", 0, 0, {}]]], "name": "dense_3"}, {"class_name": "Dense", "config": {"kernel_initializer": {"class_name": "VarianceScaling", "config": {"distribution": "uniform", "scale": 1.0, "seed": null, "mode": "fan_avg"}}, "name": "point1", "kernel_constraint": null, "bias_regularizer": null, "bias_constraint": null, "activation": "relu", "trainable": true, "kernel_regularizer": null, "bias_initializer": {"class_name": "Zeros", "config": {}}, "units": 2, "use_bias": true, "activity_regularizer": null}, "inbound_nodes": [[["dense_1", 0, 0, {}]]], "name": "point1"}, {"class_name": "Dense", "config": {"kernel_initializer": {"class_name": "VarianceScaling", "config": {"distribution": "uniform", "scale": 1.0, "seed": null, "mode": "fan_avg"}}, "name": "point2", "kernel_constraint": null, "bias_regularizer": null, "bias_constraint": null, "activation": "relu", "trainable": true, "kernel_regularizer": null, "bias_initializer": {"class_name": "Zeros", "config": {}}, "units": 2, "use_bias": true, "activity_regularizer": null}, "inbound_nodes": [[["dense_2", 0, 0, {}]]], "name": "point2"}, {"class_name": "Dense", "config": {"kernel_initializer": {"class_name": "VarianceScaling", "config": {"distribution": "uniform", "scale": 1.0, "seed": null, "mode": "fan_avg"}}, "name": "point3", "kernel_constraint": null, "bias_regularizer": null, "bias_constraint": null, "activation": "relu", "trainable": true, "kernel_regularizer": null, "bias_initializer": {"class_name": "Zeros", "config": {}}, "units": 2, "use_bias": true, "activity_regularizer": null}, "inbound_nodes": [[["dense_3", 0, 0, {}]]], "name": "point3"}, {"class_name": "Concatenate", "config": {"trainable": true, "name": "concatenate_1", "axis": -1}, "inbound_nodes": [[["point1", 0, 0, {}], ["point2", 0, 0, {}], ["point3", 0, 0, {}]]], "name": "concatenate_1"}, {"class_name": "Reshape", "config": {"target_shape": [3, 2], "trainable": true, "name": "reshape_4"}, "inbound_nodes": [[["concatenate_1", 0, 0, {}]]], "name": "reshape_4"}], "input_layers": [["TrioIn", 0, 0]], "output_layers": [["reshape_4", 0, 0]], "name": "model_1"}, "backend": "tensorflow"}